relationship_prediction/relation_model.pth (torch, 41230 bytes, 6 tensors)

src_emb.weight f4 [44, 16]
-1.1872633 -0.60228616 -0.103005245 1.3093401 -0.5763823 0.63132644 -1.7177565 2.1055758
-0.95354044 0.20540358 -2.4524636 -0.12004227 -0.3527875 1.366914 0.36971986 -0.24615954
0.2829293 1.4004492 0.39866903 -0.7374143 -0.2154349 -2.6617098 -0.31854346 -0.49616042
0.07872107 0.923901 1.0556275 0.78959095 0.0019299451 0.35757312 -1.1053418 1.2867901
-0.7237188 -0.112187065 0.26960695 0.026427116 1.4465837 1.3504686 1.5086709 1.2392917
-0.30113772 -1.1781389 -2.5627556 -1.6938784 -0.26856786 -0.7555908 -2.2873473 1.1428444
0.37976962 -0.42440322 0.9549012 -2.539436 -0.47022742 -0.08182582 0.98779964 0.47871155
-0.9678415 -0.61763674 -1.0113237 0.2622352 -0.3102215 -1.9170772 -2.7482874 1.057141
-1.9544774 2.2455904 0.26798925 -1.372983 -0.30819052 -0.56282485 1.0263822 -2.1319425
-0.32550812 -0.038708907 0.5732525 0.66613644 -0.075514756 -0.6874768 -2.4860609 -0.6518602
2.4195137 -1.4014859 0.27673495 -1.8323896 0.8902699 0.7004639 0.849511 0.26346627
-0.99645156 -0.7916372 1.8306 -0.7392896 0.36560813 -0.50411975 -0.47834814 0.85471666
0.84629095 -0.15656298 -0.367916 -0.5448709 0.15095697 -1.0252246 1.851962 -0.3172289
0.86249334 1.2091017 -1.1872482 0.59314847 1.2496098 -1.3820739 -0.6406475 -1.2896323
-0.23769014 -0.18325053 -0.421666 0.28988883 -0.42800757 -0.0045844177 0.2217048 -1.302839
-0.43552616 -0.013229844 -0.4995385 -0.890803 -1.368786 -0.3635529 -1.1549397 -1.7976143
0.6352733 1.855115 0.29592973 -0.34195313 -0.82179713 0.21839175 0.320031 -0.8683765
0.44373155 0.8574263 -0.9998033 0.17502876 -0.7789301 2.0825996 1.057441 -0.8599527
1.8717726 -0.42003757 1.6355243 -0.12078909 -1.5146488 1.682219 -0.45976806 -0.47727725
-1.7752175 0.27801216 0.047656763 -1.838671 0.07173186 1.7445927 0.74658865 0.39561605
-0.22452067 -0.60859215 -0.11001162 0.44825923 -1.6356976 -1.3777794 -1.0147977 -0.029781772
-0.42609757 0.7086841 -1.8988937 0.5387488 -0.530088 -0.76532334 1.574657 0.7642379
0.25872427 0.751533 0.040898617 0.9309756 1.4202743 0.22879666 1.2801706 1.5083482
0.38779938 1.4882479 -0.20662385 -0.47497717 -0.4570991 0.12429534 0.45224315 -0.09213027
-2.1379833 -0.4837428 -1.7427001 1.0702478 -0.67851263 -0.32171384 0.3220215 0.021811243
-0.79996455 2.9936934 -0.055732887 -0.21018527 -0.9103543 0.12712497 0.9864356 2.7028747
0.5985845 2.000245 -1.4509302 0.41128948 0.29769805 0.98364985 1.840348 -0.48839802
-0.31524816 -0.8841543 0.7126494 -0.2690337 -0.44457525 -0.2948462 1.329407 1.3929697
-1.4523635 -0.80229294 0.5962227 -0.43513831 -1.0028093 -1.3990409 2.6075902 1.1531047
-1.5949731 -0.5798377 -0.36174613 -0.3817942 -0.51351094 1.6085027 2.2284446 0.19941978
1.679134 0.09011211 -0.33270466 0.4266368 -0.3548834 0.11029334 -0.6145445 1.0745322
-0.072613835 1.6199315 -0.5414701 1.4215666 1.5125456 0.13779885 -0.78572035 0.68598896
00000000: 3ef8 97bf 6d2f 1abf 6af4 d2bd 7598 a73f
00000010: ca8d 13bf 9c9e 213f 72df dbbf c1c1 0640
00000020: 3a1b 74bf 5155 523e 2af5 1cc0 b9d8 f5bd
00000030: 90a0 b4be 0af7 ae3f ec4b bd3e 3f11 7cbe
00000040: 1cdc 903e eb41 b33f 591e cc3e 2fc7 3cbf
00000050: f79a 5cbe 7459 2ac0 2118 a3be bd08 febe
00000060: 8338 a13d c784 6c3f cd1e 873f a222 4a3f
00000070: 36f6 fc3a d313 b73e d77b 8dbf 8ab5 a43f
00000080: a345 39bf 55c2 e5bd ec09 8a3e ae7d d83c
00000090: a829 b93f 28dc ac3f 211c c13f 1ca1 9e3f
000000a0: b92e 9abe 41cd 96bf 3004 24c0 02d1 d8bf
000000b0: ba81 89be 666e 41bf e663 12c0 ba48 923f
000000c0: 2a71 c23e 614b d9be 6874 743f 1f86 22c0
000000d0: a6c1 f0be 4c94 a7bd 70e0 7c3f ae19 f53e
000000e0: 76c4 77bf 711d 1ebf 0e73 81bf b143 863e
000000f0: 5ad5 9ebe c962 f5bf f1e3 2fc0 6550 873f
00000100: 512c fabf c1b7 0f40 e335 893e e8bd afbf
00000110: 26cb 9dbe 4a15 10bf 7e60 833f bf71 08c0
00000120: 00a9 a6be 3b8d 1ebd adc0 123f eb87 2a3f
00000130: 7ba7 9abd 7bfe 2fbf 9f1b 1fc0 4fe0 26bf
00000140: 50d9 1a40 e463 b3bf 34b0 8d3e be8b eabf
00000150: bae8 633f 9a51 333f 8e79 593f 0de5 863e
00000160: 7317 7fbf bca8 4abf 1a51 ea3f 1542 3dbf
00000170: fd30 bb3e fe0d 01bf 0cea f4be b6ce 5a3f
00000180: 86a6 583f 0c52 20be 7c5f bcbe a97c 0bbf
00000190: 7794 1a3e 8f3a 83bf 170d ed3f d46b a2be
000001a0: 5dcc 5c3f d8c3 9a3f c0f7 97bf 94d8 173f
000001b0: 37f3 9f3f cce7 b0bf 7901 24bf ac12 a5bf
000001c0: 0b65 73be 07a6 3bbe 9be4 d7be 4f6c 943e
000001d0: cf23 dbbe e238 96bb 9506 633e 6ec3 a6bf
000001e0: 49fd debe fdc1 58bc 83c3 ffbe aa0b 64bf
000001f0: 6134 afbf 9b23 babe 10d5 93bf 3a18 e6bf
00000200: 45a1 223f 6974 ed3f 1a84 973e 7b14 afbe
00000210: 4c61 52bf 16a2 5f3e 1adb a33e ec4d 5ebf
00000220: c830 e33e 4a80 5b3f 1cf3 7fbf bd3a 333e
00000230: f767 47bf 5049 0540 3a5a 873f dc25 5cbf
00000240: 3f96 ef3f 2a0f d7be dc58 d13f 4560 f7bd
00000250: 03e0 c1bf f452 d73f b866 ebbe af5d f4be
00000260: 543a e3bf 9c57 8e3e bd33 433d 9259 ebbf
00000270: 27e8 923d d04e df3f 6f20 3f3f 308e ca3e
00000280: bfe8 65be b2cc 1bbf c64d e1bd 3c82 e53e
00000290: 8a5e d1bf 135b b0bf e4e4 81bf e7f8 f3bc
000002a0: 7629 dabe 526c 353f f30e f3bf 71eb 093f
000002b0: d9b3 07bf 3bec 43bf 5c8e c93f 18a5 433f
000002c0: 8277 843e 7764 403f 4f85 273d 6b54 6e3f
000002d0: 8ccb b53f ac49 6a3e a1dc a33f 8e11 c13f
000002e0: a48d c63e e87e be3f 3495 53be 3530 f3be
000002f0: e508 eabe 8e8e fe3d 6a8c e73e ccae bcbd
00000300: b8d4 08c0 23ad f7be cc10 dfbf e1fd 883f
00000310: 01b3 2dbf adb7 a4be 01e0 a43e 7ead b23c
00000320: 7aca 4cbf ac98 3f40 2b48 64bd cf3a 57be
00000330: fb0c 69bf 0c2d 023e 0b87 7c3f e6fb 2c40
00000340: d53c 193f 0404 0040 15b8 b9bf 8994 d23e
00000350: e16b 983e 7ad0 7b3f 8690 eb3f 4e0f fabe
00000360: 3568 a1be f057 62bf 3170 363f c9be 89be
00000370: 5e9f e3be 15f6 96be 022a aa3f d54c b23f
00000380: 0ce7 b9bf 1263 4dbf 0da2 183f 73ca debe
00000390: 0e5c 80bf c613 b3bf c2e2 2640 ef98 933f
000003a0: 1428 ccbf 3e70 14bf ca36 b9be 887a c3be
000003b0: 7475 03bf 6be3 cd3f d69e 0e40 b334 4c3e
000003c0: dded d63f b38c b83d 4458 aabe 2370 da3e
000003d0: 47b3 b5be 7ae1 e13d ca52 1dbf 458a 893f
000003e0: 90b6 94bd ea59 cf3f c99d 0abf e5f5 b53f
000003f0: 189b c13f 241b 0d3e f824 49bf f99c 2f3f

tgt_emb.weight f4 [44, 16]
2.0558095 -0.00764515 -0.5223705 -0.6458437 0.10408216 1.2194798 -1.5478808 -0.05977454
0.12589565 1.2025938 1.2660879 -0.34598482 -0.76581657 -1.3618698 -2.7675848 0.121376425
-1.5435195 0.32097843 0.1290043 1.1070338 0.29456267 -2.8979542 0.50392526 -0.8000887
3.1183732 0.9210685 -0.5852992 -0.51152843 1.1527841 0.23642477 1.6558772 1.2686206
-1.2177432 1.7141316 -0.78914213 -1.7263281 -1.8718374 -0.34393004 0.9212407 -0.503097
1.100139 0.4122487 -0.5916779 -1.913133 0.841751 -0.21789126 -0.33725682 -1.3275083
0.7499039 0.9036527 -0.96548617 0.7972099 -1.6439571 -0.9653252 -0.13687913 -0.20334472
-1.4495144 -0.49875218 1.0555303 -1.1827878 0.1910988 0.34890133 -2.1791341 0.9167375
-2.5012465 3.4581866 0.1934069 -0.58619285 2.5414653 -0.7364939 -0.4288228 0.42133167
-0.071782224 -0.22118719 -0.3331288 1.6180928 -0.9651419 -1.1130382 -1.2343287 -1.8912776
-0.2751685 -2.2811828 -1.0830548 0.4251 0.39476675 -1.2517565 1.6792102 -0.03912617
-1.8584745 0.18057582 -0.98694056 -1.1285915 -0.028862884 0.032458853 -0.94449025 -0.07281722
-0.45083368 -0.68467665 -0.23689966 -0.38023254 0.42433897 -0.64838064 0.94378173 0.21754484
0.9711813 0.12153046 -0.08611375 -0.7698937 0.4767819 1.8653418 0.054568358 0.37091994
1.6797976 1.7456201 -2.2022986 -1.1123263 1.1795766 -1.2513503 0.05697197 -2.6808603
1.19569 -0.42643517 0.09780151 -0.17674334 0.70565677 -0.17621912 1.5001776 0.51278055
-0.6610209 0.28263262 -0.56802756 1.298779 0.24880621 0.6735183 0.7196406 0.14153698
-0.974037 -1.5833269 1.031842 0.7011218 0.091647536 1.1618693 -0.7583573 -3.5331674
-0.31258318 -0.99438906 0.1898002 -0.056941736 -2.0135686 0.08786669 -1.0014536 1.425669
1.1488873 -0.17648268 2.5729818 -0.17407683 -0.82761866 -0.13944294 -1.4615333 1.6546425
0.34271312 -0.44284937 -0.44977593 0.7999084 -0.31282294 0.72041124 -0.706633 -2.2419133
-0.60024375 -0.15709218 1.7033305 -1.2925522 0.4402608 -0.9745005 -3.1995182 0.34193808
-0.09230829 -0.22530214 0.7086418 1.317099 -0.3515526 -1.8464884 1.4499407 -1.1711456
-2.0339415 1.1374936 0.61672693 1.3035939 0.02560381 0.80807436 -1.7142708 -0.9026851
1.0648844 -0.93427396 1.4603637 1.1189286 0.92534566 -0.9754632 0.082771055 -0.5982107
0.045871973 -1.1152366 -0.2630881 -1.133918 -1.8559086 0.2906266 -0.024014812 1.3444567
0.9433619 0.20224527 -0.92987835 -1.0564767 1.7335713 -0.06628484 -0.18799537 -0.29092425
-0.7602719 -1.3161929 0.801988 0.7846066 -0.24152122 0.26637885 0.7047097 0.116580494
-0.56090426 -0.9786352 -0.29056752 -0.46925354 -0.08130848 1.1015567 -1.5698293 -0.5702134
0.2447439 0.27173388 0.18943173 0.7747372 -0.20795599 1.161228 0.56979895 -0.50204134
-0.594305 1.043422 1.0317442 0.41288316 2.3360395 -0.7257785 -0.71298766 -0.87562764
-1.1186898 -0.020467464 -0.9740332 -0.08370687 0.68044233 0.74095 -0.6939926 -0.6644413
00000000: 6292 0340 2b84 fabb 13ba 05bf 0356 25bf
00000010: 0729 d53d ea17 9c3f f520 c6bf 26d6 74bd
00000020: caea 003e 98ee 993f 2b0f a23f ec24 b1be
00000030: 8e0c 44bf c051 aebf 1c20 31c0 3494 f83d
00000040: 0c92 c5bf 4957 a43e b419 043e 49b3 8d3f
00000050: ebd0 963e 1578 39c0 3f01 013f 9dd2 4cbf
00000060: 6d93 4740 25cb 6b3f 2bd6 15bf 87f3 02bf
00000070: 6e8e 933f 5619 723e c9f3 d33f 2962 a23f
00000080: 02df 9bbf aa68 db3f 3805 4abf 52f8 dcbf
00000090: 5e98 efbf 9917 b0be 6ed6 6b3f f7ca 00bf
000000a0: 5bd1 8c3f 4312 d33e 3478 17bf 8be1 f4bf
000000b0: fe7c 573f e31e 5fbe edac acbe cbeb a9bf
000000c0: b4f9 3f3f c955 673f 1a2a 77bf f315 4c3f
000000d0: 306d d2bf 8d1f 77bf 0b2a 0cbe 9939 50be
000000e0: b089 b9bf 725c ffbe 9e1b 873f 9765 97bf
000000f0: 67af 433e 32a3 b23e ef76 0bc0 4faf 6a3f
00000100: 6c14 20c0 ee52 5d40 750c 463e bc10 16bf
00000110: 5ea7 2240 dd8a 3cbf a98e dbbe c9b8 d73e
00000120: 8f02 93bd e57e 62be dc8f aabe aa1d cf3f
00000130: 8a13 77bf 0978 8ebf 7cfe 9dbf 6215 f2bf
00000140: e3e2 8cbe e6fe 11c0 8aa1 8abf b5a6 d93e
00000150: de1e ca3e 8f39 a0bf 5cf0 d63f c342 20bd
00000160: 7ee2 edbf dee8 383e 23a8 7cbf b075 90bf
00000170: db71 ecbc 93f3 043d 1dca 71bf 3221 95bd
00000180: acd3 e6be f846 2fbf d395 72be d7ad c2be
00000190: f542 d93e 46fc 25bf ae9b 713f 13c4 5e3e
000001a0: 569f 783f f6e4 f83d 685c b0bd c117 45bf
000001b0: c21c f43e 85c3 ee3f 1283 5f3d 38e9 bd3e
000001c0: 9c03 d73f 7b70 df3f 76f2 0cc0 b560 8ebf
000001d0: 5efc 963f 3f2c a0bf 715b 693d 3793 2bc0
000001e0: 5f0c 993f b655 dabe 284c c83d 35fc 34be
000001f0: eca5 343f c972 34be d205 c03f 9645 033f
00000200: aa38 29bf 39b5 903e 416a 11bf 643e a63f
00000210: 0ec7 7e3e b26b 2c3f 5e3a 383f 12ef 103e
00000220: 7d5a 79bf 75aa cabf 6613 843f b87c 333f
00000230: b4b1 bb3d 22b8 943f b423 42bf 6a1f 62c0
00000240: e70a a0be 4890 7ebf fc5a 423e bd3b 69bd
00000250: 4fde 00c0 73f3 b33d a22f 80bf 527c b63f
00000260: bd0e 933f e0b7 34be bcab 2440 3241 32be
00000270: d1de 53bf 21ca 0ebe 8613 bbbf 53cb d33f
00000280: 1878 af3e 27bd e2be 0849 e6be ccc6 4c3f
00000290: 542a a0be df6c 383f e6e5 34bf 827b 0fc0
000002a0: 93a9 19bf c6dc 20be bc06 da3f 5a72 a5bf
000002b0: dd69 e13e dd78 79bf e8c4 4cc0 8212 af3e
000002c0: 210c bdbd 9bb5 66be 8d69 353f b396 a83f
000002d0: b4fe b3be bb59 ecbf a897 b93f 19e8 95bf
000002e0: 192c 02c0 6499 913f d1e1 1d3f 2adc a63f
000002f0: 15bf d13c f6dd 4e3f 3a6d dbbf 5f16 67bf
00000300: 224e 883f 942c 6fbf 33ed ba3f 0d39 8f3f
00000310: 74e3 6c3f f5b7 79bf df83 a93d 5624 19bf
00000320: 40e4 3b3d 13c0 8ebf 7cb3 86be 3a24 91bf
00000330: 6a8e edbf 02cd 943e b6ba c4bc 2817 ac3f
00000340: 2a80 713f 6219 4f3e 820c 6ebf a13a 87bf
00000350: aae5 dd3f 59c0 87bd dc81 40be 06f4 94be
00000360: 2ea1 42bf 0279 a8bf 164f 4d3f fadb 483f
00000370: 5751 77be cf62 883e db67 343f c1c1 ee3d
00000380: 6c97 0fbf d687 7abf 44c5 94be 0042 f0be
00000390: 0f85 a6bd cfff 8c3f 2bf0 c8bf 81f9 11bf
000003a0: 259e 7a3e b420 8b3e 64fa 413e 2d55 463f
000003b0: 6af2 54be 1ea3 943f 58de 113f c885 00bf
000003c0: 5f24 18bf da8e 853f 3210 843f 6c65 d33e
000003d0: ac81 1540 9fcc 39bf 5c86 36bf 2229 60bf
000003e0: 3a31 8fbf 62ab a7bc 3d5a 79bf 826e abbd
000003f0: 7831 2e3f e6ae 3d3f 80a9 31bf d318 2abf

fc.0.weight f4 [128, 42]
0.1063056 0.07922325 -0.009856293 0.054941792 0.3365858 0.13167061 0.19107254 -0.051011097
-0.12697548 -0.17184058 -0.24706067 -0.26091397 0.20096491 -0.31212285 0.054267447 0.19612156
-0.10517466 -0.0025407006 -0.05737923 0.25552544 -0.27745745 0.16569935 0.26519367 0.28442892
0.18597342 0.08163697 -0.11887983 0.095892176 0.06162367 0.12927 -0.11843525 -0.15014198
-0.13302948 0.12421349 0.13061641 0.21822041 0.00020648733 -0.046680767 0.031037956 -0.20804839
0.10300454 0.034943957 0.012311897 0.05428476 -0.167836 -0.08203997 -0.08973877 -0.05415586
-0.01586361 0.03583967 -0.01368216 0.18354918 0.08958925 -0.08174006 -0.17683136 0.2464572
-0.09414989 0.065107025 0.14124718 -0.0716922 -0.10787984 -0.16724378 0.09682879 -0.044122797
0.0029051173 -0.19206785 0.11048282 0.096751034 0.1517787 0.04455162 -0.17412049 0.07134481
-0.013913467 0.023048012 -0.108096495 -0.030463867 -0.11772949 0.10094678 -0.13252632 0.09558284
-0.009693136 0.024656838 -0.13931958 0.15503153 0.14604232 -0.23235565 -0.057877973 -0.08541298
-0.0182091 0.34563434 -0.049550403 -0.03781932 0.16949382 0.14974004 0.168345 0.061626952
0.12491148 -0.004958122 0.10147576 0.10340067 -0.13260092 -0.2584855 0.2221336 0.16985165
0.008942223 0.021256493 -0.07837478 0.013615557 -0.08768278 -0.23642199 -0.04543185 -0.051745947
-0.12487129 -0.14735475 -0.019709753 -0.007598497 -0.13237548 -0.1801033 0.23434757 0.077167906
-0.07913084 0.18525669 0.16084976 -0.030224334 0.2580992 0.059373632 0.064957276 0.12391899
-0.05395804 -0.100291684 -0.1431198 0.061551843 0.13187411 -0.15571457 -0.1900137 0.023611275
0.07508197 0.029653762 -0.14298208 0.10132932 -0.08995389 -0.23029016 -0.016405901 0.2022863
0.12685704 0.005438829 0.041327443 -0.033447977 -0.043023594 0.027809603 -0.104548216 -0.061732817
-0.05876396 -0.020545576 0.024786772 0.30588645 0.17489195 0.04486485 -0.0020539246 0.24938415
-0.20402262 -0.14627929 0.33775476 -0.05046007 0.3041974 -0.18485413 0.10299375 -0.14776756
-0.13426927 0.06512405 -0.08683207 0.07691053 0.021556107 -0.026872955 0.24487105 -0.1652678
-0.20768142 0.11610048 0.14839159 -0.08395835 -0.25088894 -0.0567587 -0.16028602 -0.24970654
-0.1896786 0.18814994 -0.1566318 0.25124264 0.2330777 0.040260386 0.1636292 0.026746407
0.045970425 0.011818536 -0.23612091 -0.17942955 0.002414911 0.09762405 -0.06265035 -0.27447277
0.05646256 -0.050331943 -0.82870436 -0.090987146 0.1236308 -0.38545948 0.117854774 0.172954
0.2640906 0.1813095 -0.16886438 -0.011311444 -0.0063951914 -0.038650785 0.07779804 -0.32226038
0.1337813 -0.012204133 -0.08590944 -0.053119287 -0.008979556 0.0890533 0.118545234 0.07754592
0.0030475194 0.04538962 0.03200926 0.034008414 0.14955175 -0.040869873 -0.005082268 -0.12179135
0.1892376 0.028183997 -0.113408536 -0.18942249 0.1322551 -0.106129505 0.14470688 -0.17252377
-0.07504761 0.13577059 0.6251046 -0.010202568 -0.707025 0.079597786 0.078791395 -0.19674258
0.094842345 -0.25422737 0.031036468 -0.29486224 0.056199014 0.09419494 -0.08768732 -0.14663902
00000000: c0b6 d93d cd3f a23d 4a7c 21bc a50a 613d
00000010: f954 ac3e a9d4 063e 85a8 433e 03f1 50bd
00000020: dc05 02be faf6 2fbe 79fd 7cbe 8496 85be
00000030: bfc9 4d3e 91ce 9fbe 8b47 5e3d 17d4 483e
00000040: d065 d7bd e281 26bb 7c06 6bbd 3bd4 823e
00000050: e70e 8ebe 17ad 293e 77c7 873e aba0 913e
00000060: d16f 3e3e 4931 a73d 4577 f3bd 1e63 c43d
00000070: 1a69 7c3d 5b5f 043e 2e8e f2bd d2be 19be
00000080: e138 08be a463 fe3d 4fc0 053e 2c75 5f3e
00000090: 8584 5839 5534 3fbd 5043 fe3c a30a 55be
000000a0: 0bf4 d23d 6521 0f3d d7b7 493c b259 5e3d
000000b0: 33dd 2bbe 9204 a8bd f6c8 b7bd 89d2 5dbd
000000c0: 67f4 81bc 9ecc 123d 232b 60bc 51f4 3b3e
000000d0: 927a b73d 5567 a7bd 4813 35be 475f 7c3e
000000e0: a8d1 c0bd d556 853d 1aa3 103e 5cd3 92bd
000000f0: 1bf0 dcbd f441 2bbe 2c4e c63d 1bba 34bd
00000100: c863 3e3b 6fad 44be d144 e23d 6825 c63d
00000110: e06b 1b3e c27b 363d a44c 32be 3a1d 923d
00000120: 4ff5 63bc 2fcf bc3c b261 ddbd 5c8f f9bc
00000130: 291c f1bd 2fbd ce3d fbb4 07be f0c0 c33d
00000140: f6cf 1ebc 23fd c93c cba9 0ebe 96c0 1e3e
00000150: 1e8c 153e a4ee 6dbe 7411 6dbd 00ed aebd
00000160: 402b 95bc fcf6 b03e 5df5 4abd 6ee8 1abd
00000170: ca8f 2d3e 7455 193e a262 2c3e 8b6c 7c3d
00000180: 97d1 ff3d be77 a2bb 86d2 cf3d bbc3 d33d
00000190: 89c8 07be 3658 84be fe76 633e 97ed 2d3e
000001a0: 6782 123c 1922 ae3c f582 a0bd c913 5f3c
000001b0: 0893 b3bd 9b18 72be bf16 3abd 8ff3 53bd
000001c0: 85bc ffbd 2ae4 16be 5976 a1bc d0fc f8bb
000001d0: 708d 07be 006d 38be cff8 6f3e 350a 9e3d
000001e0: 5a0f a2bd eeb3 3d3e cdb5 243e 0699 f7bc
000001f0: 9425 843e c431 733d 5208 853d 3dc9 fd3d
00000200: 1b03 5dbd ba65 cdbd ff8d 12be c91d 7c3d
00000210: 020a 073e a473 1fbe f492 42be 6f6c c13c
00000220: 93c4 993d 72ec f23c e569 12be bf85 cf3d
00000230: bf39 b8bd 2fd1 6bbe ab65 86bc 2424 4f3e
00000240: d0e6 013e 3438 b23b f746 293d bf00 09bd
00000250: 8239 30bd f7d0 e33c 601d d6bd 8ddb 7cbd
00000260: 7ab2 70bd 324f a8bc a10d cb3c 269d 9c3e
00000270: e016 333e 34c4 373d 239b 06bb 8f5e 7f3e
00000280: 4eeb 50be 3dca 15be 31ee ac3e 38af 4ebd
00000290: c3bf 9b3e 674a 3dbe 63ee d23d 6150 17be
000002a0: e27d 09be c25f 853d 03d5 b1bd 4583 9d3d
000002b0: 6f96 b03c ac24 dcbc 7abf 7a3e f63b 29be
000002c0: 70aa 54be 17c6 ed3d f7f3 173e 5bf2 abbd
000002d0: 8474 80be d07b 68bd 0522 24be 12b3 7fbe
000002e0: 1b3b 42be 61aa 403e 1664 20be e0a2 803e
000002f0: ecab 6e3e 13e8 243d 6a8e 273e 481b db3c
00000300: 7c4b 3c3d 88a2 413c aec9 71be 61bc 37be
00000310: 7c43 1e3b 1eef c73d d44e 80bd b287 8cbe
00000320: 4945 673d de28 4ebd f825 54bf 7857 babd
00000330: 2532 fd3d f25a c5be d85d f13d da1a 313e
00000340: e236 873e 33a9 393e c9ea 2cbe a353 39bc
00000350: c18e d1bb 4950 1ebd 9454 9f3d 50ff a4be
00000360: f7fd 083e d8f3 47bc 4af1 afbd 9c93 59bd
00000370: fd1e 13bc 9461 b63d d8c7 f23d 65d0 9e3d
00000380: e4b8 473b 77ea 393d 241c 033d 684c 0b3d
00000390: 1824 193e 2b67 27bd 2789 a6bb be6d f9bd
000003a0: 80c7 413e 20e2 e63c bc42 e8bd f8f7 41be
000003b0: e26d 073e 6d5a d9bd 0a2e 143e 12aa 30be
000003c0: 90b2 99bd 7207 0b3e db06 203f ac28 27bc
000003d0: 97ff 34bf 2a04 a33d 625d a13d e376 49be
000003e0: b43c c23d 172a 82be 3140 fe3c 2ff8 96be
000003f0: f030 663d 47e9 c03d 6995 b3bd 8a28 16be

fc.0.bias f4 [128]
-0.059458565 0.071656846 0.09782767 0.15679137 0.074227795 0.08870553 0.18088329 0.23228168
-0.038474824 0.08532413 0.2135722 -0.17483996 -0.0026740294 -0.08519864 0.22593647 0.14520009
-0.015666077 -0.08253255 0.25375673 -0.010104211 0.13620031 0.043004643 0.0148839215 0.049595196
0.01224421 0.008150688 0.13658693 0.19950347 0.037667733 0.27354696 0.07923241 0.16104832
0.23997149 0.122142754 0.14457425 0.1820436 0.008819781 0.20236938 0.19813019 0.24525888
-0.017880494 0.17190471 0.18672355 0.068935305 0.3128698 -0.064695165 0.16297987 0.037774272
0.20455307 -0.03820063 0.0016893668 -0.0101722665 0.21801765 -0.1034667 -0.014372501 -0.032106582
0.20395139 -0.18312648 -0.040942468 0.35413888 -0.0033424378 -0.004455499 0.102200024 -0.052107263
-0.19585769 0.05254895 0.045086354 -0.043796252 0.23869367 -0.053867813 0.022282435 0.080679536
0.058616742 0.035092823 0.11555262 0.24432687 0.07872297 0.15132831 0.108181685 0.008295461
0.00806063 0.0014059666 0.23870298 -0.052804198 -0.12448486 0.11787833 0.005532135 -0.09806578
0.0846284 0.15012145 -0.114864565 0.010316403 0.12503663 0.049904272 -0.0029666894 0.054910153
-0.03592465 0.16076793 0.073014475 0.13693413 0.110363014 0.17877384 0.255526 -0.021531064
-0.07169424 0.004327797 0.25237098 -0.027715249 0.13465928 0.1862423 0.062601104 0.13571939
0.018127192 0.017578302 0.062220577 0.2736537 0.15085818 -0.06778758 0.016041953 0.10981091
-0.044345725 0.019421488 -0.107076384 -0.034837138 -0.022530688 -0.09787724 0.19507566 -0.030396067
00000000: d38a 73bd d3c0 923d e059 c83d eb8d 203e
00000010: be04 983d 3fab b53d 7839 393e 40db 6d3e
00000020: c797 1dbd 6bbe ae3d acb2 5a3e 3f09 33be
00000030: c53e 2fbb a07c aebd e45b 673e 55af 143e
00000040: 2556 80bc d306 a9bd 67ec 813e 228c 25bc
00000050: 1878 0b3e a325 303d b1db 733c 5524 4b3d
00000060: f09b 483c 778a 053c 72dd 0b3e a34a 4c3e
00000070: 7b49 1a3d 590e 8c3e 9a44 a23d dae9 243e
00000080: 16bb 753e fb25 fa3d 460b 143e a369 3a3e
00000090: d880 103c eb39 4f3e a4e2 4a3e 2525 7b3e
000000a0: 1d7a 92bc ca07 303e 7534 3f3e f42d 8d3d
000000b0: 7830 a03e e67e 84bd 32e4 263e 32b9 1a3d
000000c0: 5c76 513e 4478 1cbd be6d dd3a 94a9 26bc
000000d0: 0540 5f3e 59e6 d3bd a37a 6bbc 3182 03bd
000000e0: a2d8 503e 8285 3bbe 4ab3 27bd b151 b53e
000000f0: cd0c 5bbb 6fff 91bb 3f4e d13d 6d6e 55bd
00000100: eb8e 48be 913d 573d 78ac 383d b363 33bd
00000110: 1d6c 743e 7fa4 5cbd a789 b63c 503b a53d
00000120: 1c18 703d 7ebd 0f3d daa6 ec3d d330 7a3e
00000130: 8239 a13d cff5 1a3e 5c8e dd3d afe9 073c
00000140: bc10 043c 6948 b83a 8e6e 743e 3749 58bd
00000150: ebf1 febd 326a f13d e946 b53b b6d6 c8bd
00000160: a851 ad3d 70b9 193e 1d3e ebbd 2106 293c
00000170: 9a09 003e 6c68 4c3d ca6c 42bb 78e9 603d
00000180: ba25 13bd 59a0 243e 9d88 953d 7638 0c3e
00000190: 0106 e23d 7d10 373e 4ed4 823e ea61 b0bc
000001a0: 6ed4 92bd 31d0 8d3b c536 813e 170b e3bc
000001b0: 1fe4 093e 4db6 3e3e 0235 803d 06fa 0a3e
000001c0: 7a7f 943c 5f00 903c 01db 7e3d 561c 8c3e
000001d0: 917a 1a3e 37d4 8abd 6a6a 833c 8be4 e03d
000001e0: dda3 35bd d019 9f3c dd4a dbbd 63b1 0ebd
000001f0: 4792 b8bc dd73 c8bd eac1 473e 2c01 f9bc

fc.2.weight f4 [21, 128]
-0.4649388 0.02624784 0.25395894 -0.067431204 -0.21891673 -0.2631297 0.2398919 -0.021712754
-0.32134476 -0.109895416 0.16500597 -0.1451011 -0.25323966 -0.19927436 -0.12337309 -0.10118133
-0.2420814 0.020659598 0.2133161 -0.054033596 0.12796506 0.122143276 -0.22388776 0.19902588
0.13979408 -0.23657948 0.040701937 0.083593 -0.24005005 -0.2335474 -0.09833624 -0.19038992
-0.09624029 -0.1518978 -0.21344942 -0.049756866 0.11222237 0.09967905 -0.010763277 0.1611493
0.037572764 -0.1012816 -0.111672916 -0.15823056 0.23754486 -0.19577907 0.058615334 -0.2623658
-0.13651614 0.1915964 -0.005886439 -0.18002489 -0.049307976 0.121209405 -0.30877534 -0.08515216
0.16414163 -0.0002848643 0.0029401623 -0.33812046 -0.05719136 -0.0926808 -0.2776812 -0.070140995
0.073313534 0.12409258 -0.20138153 -0.08172652 -0.11385443 0.108224474 0.019583894 -0.13953896
0.16461802 -0.041225266 -0.06970719 0.23533762 -0.007476188 -0.3935532 -0.25930178 0.20695049
0.19062065 -0.015446357 -0.101396896 0.17354165 -0.0016118014 0.11554388 -0.115024574 -0.086426064
-0.019054648 -0.13011195 -0.33657953 0.09000821 -0.065076515 0.046508305 0.08416351 -0.11924677
0.19043465 -0.40748575 -0.23708093 0.05458172 0.06728238 0.08538862 0.11572778 -0.009596283
-0.19868988 -0.030804547 -0.03680532 -0.13913208 0.1969318 0.042434778 0.183908 0.033728134
0.21346807 -0.13192436 -0.020616338 0.1714307 0.19203897 -0.034483347 0.07994195 -0.12149282
-0.028104307 -0.18012007 0.043598965 0.15719143 0.080485746 0.093219474 0.25064868 -0.12437725
0.029128822 0.061608296 0.0096633835 -0.08255251 -0.13506384 -0.16636588 0.1359227 -0.28568944
0.083201475 0.04587802 -0.2176355 0.04583348 0.13082443 0.2123193 -0.38389984 0.09212734
0.016365321 0.05273685 -0.08022707 -0.017847829 -0.32915333 -0.057533585 -0.2291239 -0.14227332
0.005610782 -0.030438276 -0.08189606 0.15998064 -0.009925272 0.13928242 -0.25352725 -0.19053963
-0.087323874 -0.16666879 -0.027602684 -0.20319602 0.21859 0.033693183 0.028092735 0.08372679
0.047875024 0.08492056 -0.06974078 -0.12565166 -0.2573137 0.076297596 -0.19037595 0.20385014
0.105184644 -0.03695724 0.19404376 -0.026508583 -0.21424538 0.12346761 0.28904957 -0.008954405
-0.29758355 0.092406884 0.08543748 -0.22922789 0.20979388 -0.17114583 -0.35721487 0.031367492
0.14391333 -0.07511211 -0.009157352 -0.123400666 -0.23941112 0.09444716 0.15418965 0.03123722
0.117572926 0.13183878 0.10207345 -0.06878222 0.056057908 0.24831155 -0.017945657 0.14707719
0.16284218 0.13553108 0.0012741385 0.006825227 0.19072284 0.20409921 -0.13690169 0.00813998
0.052081008 -0.1495054 -0.06945825 0.10429825 -0.20510474 0.009837179 0.15784375 -0.12837979
0.055098355 0.12191613 -0.18849072 0.098525606 0.26663676 -0.10459499 -0.14876136 -0.21460037
0.0028548513 0.084399216 -0.08438021 -0.033556394 0.07354466 -0.12654829 -0.041508626 0.07529456
-0.32259104 -0.2090912 0.12693894 -0.08867001 -0.27654815 -0.12687819 0.2522226 -0.06823521
0.10762604 -0.29504943 0.20548981 0.16699463 -0.08239053 0.21745725 -0.22355129 -0.09836992
00000000: 750c eebe b605 d73c e806 823e 5f19 8abd
00000010: b52b 60be f0b8 86be 39a6 753e f2de b1bc
00000020: 4d87 a4be d910 e1bd 53f7 283e 6295 14be
00000030: a1a8 81be 940e 4cbe 08ab fcbd 2838 cfbd
00000040: 30e4 77be 513e a93c 896f 5a3e 5552 5dbd
00000050: 4609 033e 4126 fa3d d542 65be 71cd 4b3e
00000060: 2e26 0f3e e441 72be 13b7 263d cf32 ab3d
00000070: aecf 75be 0d27 6fbe 8364 c9bd 93f5 42be
00000080: a119 c5bd 198b 1bbe 7c92 5abe dbcd 4bbd
00000090: d8d4 e53d 8824 cc3d 7558 30bc 5204 253e
000000a0: e6e5 193d ba6c cfbd c5b4 e4bd 3107 22be
000000b0: f63e 733e 4f7a 48be a216 703d cf54 86be
000000c0: e3ca 0bbe d931 443e 07e3 c0bb 7258 38be
000000d0: 29f7 49bd a33c f83d cd17 9ebe 4164 aebd
000000e0: be14 283e d759 95b9 bdaf 403b 201e adbe
000000f0: 7d41 6abd 6ecf bdbd 3b2c 8ebe 15a6 8fbd
00000100: 6825 963d 4024 fe3d f636 4ebe 3c60 a7bd
00000110: 832c e9bd cba4 dd3d 676e a03c 4de3 0ebe
00000120: a091 283e d3db 28bd a5c2 8ebd 58fc 703e
00000130: cffa f4bb ce7f c9be 34c3 84be d4ea 533e
00000140: 0f32 433e b812 7dbc 2da9 cfbd e7b4 313e
00000150: 1543 d3ba 45a2 ec3d 0192 ebbd 2600 b1bd
00000160: 7e18 9cbc 113c 05be 2754 acbe 3956 b83d
00000170: d646 85bd 7e7f 3e3d eb5d ac3d a737 f4bd
00000180: 4d01 433e f9a1 d0be 58c5 72be 1591 5f3d
00000190: 58cb 893d 3be0 ae3d b002 ed3d ba39 1dbc
000001a0: 5c75 4bbe d159 fcbc 2dc1 16bd a478 0ebe
000001b0: 7da8 493e 17d0 2d3d 6152 3c3e 8326 0a3d
000001c0: 6097 5a3e 2e17 07be 98e3 a8bc 888b 2f3e
000001d0: dda5 443e 693e 0dbd 9bb8 a33d 3ad1 f8bd
000001e0: 013b e6bc 6571 38be d494 323d caf6 203e
000001f0: b6d5 a43d dae9 be3d 0655 803e 80b9 febd
00000200: 919f ee3c fb58 7c3d 2b53 1e3c 4a11 a9bd
00000210: 2d4e 0abe d15b 2abe 522f 0b3e e345 92be
00000220: 8965 aa3d 97ea 3b3d d7db 5ebe e3bb 3b3d
00000230: d7f6 053e 3b6a 593e 858e c4be 42ad bc3d
00000240: 9110 863c 9802 583d 174e a4bd 9c35 92bc
00000250: c986 a8be 56a8 6bbd 759f 6abe 19b0 11be
00000260: a7da b73b b159 f9bc 1fb9 a7bd f7d1 233e
00000270: 9c9d 22bc 0da0 0e3e 53ce 81be d21c 43be
00000280: dcd6 b2bd 39ab 2abe 061f e2bc 9e12 50be
00000290: 0fd6 5f3e dd01 0a3d bc22 e63c f478 ab3d
000002a0: 9a18 443d d5ea ad3d 41d4 8ebd d4aa 00be
000002b0: 9fbe 83be ea41 9c3d eaf1 42be 17be 503e
000002c0: 0c6b d73d 7a60 17bd 68b3 463e 8728 d9bc
000002d0: 2463 5bbe 96dc fc3d 4efe 933e 7fb5 12bc
000002e0: df5c 98be d23f bd3d d8f9 ae3d b7ba 6abe
000002f0: 35d4 563e da40 2fbe dee4 b6be 337b 003d
00000300: 045e 133e 61d4 99bd b808 16bc 7db9 fcbd
00000310: 3028 75be 836d c13d e4e3 1d3e 33e5 ff3c
00000320: 13ca f03d bf00 073e e30b d13d b1dd 8cbd
00000330: fa9c 653d 6245 7e3e c502 93bc 679b 163e
00000340: 1ac0 263e a9c8 0a3e fe00 a73a 27a6 df3b
00000350: d94c 433e 62ff 503e f52f 0cbe 8d5d 053c
00000360: e552 553d f217 19be 2140 8ebd 529a d53d
00000370: fa06 52be 1f2c 213c cba1 213e fe75 03be
00000380: d0ae 613d 2aaf f93d b603 41be cbc7 c93d
00000390: 9d84 883e e635 d6bd e654 18be 33c0 5bbe
000003a0: 7518 3b3b 7fd9 ac3d 88cf acbd 6e72 09bd
000003b0: 959e 963d e095 01be f304 2abd 0934 9a3d
000003c0: a72a a5be 011c 56be 48fc 013e 9f98 b5bd
000003d0: b897 8dbe 5bec 01be 5223 813e e7be 8bbd
000003e0: 0b6b dc3d b810 97be ec6b 523e a400 2b3e
000003f0: 5ebc a8bd 1dad 5e3e a1ea 64be 2b76 c9bd

fc.2.bias f4 [21]
-0.027692415 0.0070300605 0.033301074 0.019511675 0.012176287 0.12658842 0.06647365 -0.020772005
0.088352874 -0.12679891 -0.029530022 0.012642923 -0.079890296 -0.0748508 0.038720537 -0.09525286
-0.017628884 -0.09225785 -0.1201042 0.037207298 -0.0874865
00000000: 34db e2bc 6c5c e63b b566 083d f3d6 9f3c
00000010: 0d7f 473c 65a0 013e 5623 883d 0d2a aabc
00000020: 5af2 b43d 93d7 01be f2e8 f1bc 4324 4f3c
00000030: 869d a3bd 604b 99bd 6d99 1e3d ee13 c3bd
00000040: 736a 90bc aff1 bcbd 31f9 f5bd ae66 183d
00000050: 1f2c b3bd
